gnnrl/lib/logs/critic.pkl (torch_old, 370926 bytes, 7 tensors)

fc11.weight f4 [300, 3]
-0.24184424 0.17499273 0.06235484 -0.53847057 0.5394239 -0.36999032 0.30279392 -0.5142765
-0.23595864 -0.06154881 -0.5487028 -0.19370939 0.047825236 0.43947944 -0.061063413 -0.4122639
-0.2879566 0.11299926 -0.32945335 -0.5527811 -0.01669039 -0.32951328 0.38950095 -0.3344311
-0.097153924 0.54448813 -0.124762535 -0.11638123 0.23369953 0.5407214 -0.55547595 -0.5037896
-0.20437074 0.5057319 -0.026049457 -0.25251144 0.09094785 -0.44598466 -0.040959574 -0.5494286
0.17647423 0.530331 -0.22542799 0.306068 -0.11365419 0.5038783 -0.42370072 0.3588071
0.14011574 -0.44504333 0.5351765 -0.4085922 0.53912586 -0.16776474 -0.12450946 -0.20801333
-0.47198144 -0.50608706 -0.39232853 -0.18187815 -0.046570465 -0.4976647 -0.33756667 -0.03332628
0.2394143 0.4418087 -0.19743541 0.07665445 0.4498916 -0.13378243 0.56243163 0.48490265
-0.5424824 0.32023835 -0.217288 -0.44165787 -0.30692828 -0.49995267 0.035978448 0.4339112
0.2478279 -0.3870656 -0.41144118 -0.14100666 0.037680387 -0.03034705 0.056666255 0.124623224
-0.23237416 0.11089251 0.43505496 -0.3149619 0.3061392 -0.12351706 -0.37000608 -0.44448388
-0.02038087 0.23696852 0.5040318 -0.47128436 0.55616784 0.0070672627 0.19437796 0.33464968
-0.022483706 -0.27117866 -0.002520707 -0.33964396 -0.47703207 -0.12389728 0.49168426 0.31086382
-0.4744052 0.44239923 0.08046345 0.2085377 0.15711871 -0.34045634 0.25596318 0.2880492
-0.005548835 0.09109187 -0.08724114 0.27770564 -0.12196524 0.33751184 -0.033007246 0.0038393957
0.15312687 0.4728968 -0.2578857 0.060573164 -0.079145506 -0.36344212 0.51288164 -0.237584
0.549159 -0.06496884 0.42390466 -0.19564328 -0.07265027 0.040997893 0.36417678 -0.20848252
-0.017291004 -0.23309456 -0.3654407 0.12121614 -0.0155344615 0.43110794 -0.09342433 -0.450234
0.5402369 -0.17664528 -0.1582178 -0.45992324 -0.23408055 0.29874387 -0.028212218 -0.12951827
-0.55274934 -0.2520796 -0.41272932 -0.14984936 0.37950328 0.5477049 -0.09960227 0.56970286
0.1760147 0.532549 -0.48821807 -0.11435722 0.52237356 0.3417657 -0.43161362 -0.4884019
-0.26650617 0.07336881 0.3674446 -0.13771059 0.06547939 0.01223466 0.22388168 -0.018727854
-0.05874795 0.5656368 -0.21144451 0.4041816 0.14082451 -0.48393112 0.34514362 -0.37030235
0.18059894 -0.19449931 0.2648639 0.4133676 -0.060215537 -0.1416967 -0.54937 -0.18374273
0.4779598 -0.5218264 0.3687906 -0.2186443 -0.03207519 0.41010952 0.05553737 0.17568357
0.17457633 0.501261 -0.27207887 0.27623796 0.36931598 -0.13588902 0.43749923 -0.19341987
0.5491905 -0.4408291 -0.23168665 -0.067937374 0.05579424 0.07768345 -0.38576677 -0.33877802
0.14995588 -0.10514035 0.25543407 -0.36687922 -0.058776915 -0.07463473 -0.45553964 0.09510448
0.3230094 0.1654327 -0.076722145 0.005601044 0.17916009 -0.08689068 -0.27448452 0.11211793
-0.5400436 0.1437607 -0.2976791 -0.29589364 -0.49063328 -0.32728156 -0.06262538 -0.26768562
0.49920532 -0.16054383 0.19709823 0.5006936 0.42261595 -0.40627828 -0.22456391 0.09640328
00000000: 04a6 77be 4b31 333e ca67 7f3d 35d9 09bf
00000010: af17 0a3f 5f6f bdbe ce07 9b3e a0a7 03bf
00000020: 249f 71be 9b1a 7cbd c977 0cbf c15b 46be
00000030: 65e4 433d 7303 e13e a11d 7abd 4114 d3be
00000040: 0c6f 93be 286c e73d 1cae a8be 1083 0dbf
00000050: 49ba 88bc f7b5 a8be ab6c c73e 8e3a abbe
00000060: a3f8 c6bd 9363 0b3f 8083 ffbd 4859 eebd
00000070: ee4e 6f3e b86c 0a3f ac33 0ebf 5bf8 00bf
00000080: 9046 51be a577 013f ac65 d5bc 2e49 81be
00000090: de42 ba3d 1a58 e4be 3ac5 27bd 5aa7 0cbf
000000a0: a9b5 343e c6c3 073f 98d6 66be f2b4 9c3e
000000b0: 87c3 e8bd 2bfe 003f 4def d8be 90b5 b73e
000000c0: 807a 0f3e b8dc e3be 5401 093f ff32 d1be
000000d0: 2704 0a3f 85ca 2bbe d1fe febd 7201 55be
000000e0: 8da7 f1be ec8e 01bf 49df c8be 443e 3abe
000000f0: acc0 3ebd e8cd febe 8ad5 acbe 2381 08bd
00000100: 0629 753e c034 e23e 822c 4abe 02fd 9c3d
00000110: 3158 e63e 43fe 08be 85fb 0f3f 2945 f83e
00000120: 20e0 0abf 48f6 a33e bf80 5ebe fb20 e2be
00000130: b425 9dbe ccf9 ffbe 235e 133d 9c29 de3e
00000140: 99c6 7d3e 762d c6be 6ba8 d2be 0d64 10be
00000150: c056 1a3d 609a f8bc e01a 683d 763a ff3d
00000160: 7ef3 6dbe 9d1b e33d 86bf de3e b042 a1be
00000170: 47be 9c3e 83f6 fcbd 7071 bdbe 6493 e3be
00000180: c8f5 a6bc e0a7 723e 3a08 013f 2f4c f1be
00000190: 0461 0e3f 7f94 e73b 040b 473e 3457 ab3e
000001a0: c02f b8bc eed7 8abe 7232 25bb d0e5 adbe
000001b0: 8c3d f4be dbbd fdbd 0abe fb3e 8b29 9f3e
000001c0: 3de5 f2be 2782 e23e 05ca a43d e88a 553e
000001d0: bae3 203e 4b50 aebe 9b0d 833e 2f7b 933e
000001e0: 00d3 b5bb 608e ba3d 7cab b2bd 6f2f 8e3e
000001f0: e9c8 f9bd 5ace ac3e 9b32 07bd 5f9e 7b3b
00000200: 4acd 1c3e 881f f23e 9809 84be 911b 783d
00000210: 0a17 a2bd 1615 babe 364c 033f 3849 73be
00000220: af95 0c3f 620e 85bd 080a d93e b656 48be
00000230: aac9 94bd 68ed 273d 6175 ba3e 717c 55be
00000240: dda5 8dbc 57b0 6ebe 0b1b bbbe 2b40 f83d
00000250: 4184 7ebc 2eba dc3e 4155 bfbd 1285 e6be
00000260: f74c 0a3f 80e2 34be d903 22be 0f7b ebbe
00000270: d0b2 6fbe f5f4 983e 4f1d e7bc 70a0 04be
00000280: fb80 0dbf 9410 81be 4251 d3be 1c72 19be
00000290: 414e c23e 6336 0c3f 46fc cbbd 0cd8 113f
000002a0: 333d 343e 2255 083f b8f7 f9be 1e34 eabd
000002b0: 46ba 053f eafb ae3e 76fc dcbe d00f fabe
000002c0: 7f73 88be 6342 963d b321 bc3e 0104 0dbe
000002d0: 0f1a 863d e273 483c 3d41 653e 286b 99bc
000002e0: b1a1 70bd 93cd 103f e984 58be e4f0 ce3e
000002f0: 4d34 103e d2c5 f7be aab6 b03e 4598 bdbe
00000300: eeee 383e d42a 47be 3e9c 873e eba4 d33e
00000310: 91a4 76bd f118 11be 83a3 0cbf 0e27 3cbe
00000320: 26b7 f43e 6a96 05bf 1fd2 bc3e 4be4 5fbe
00000330: 4661 03bd e0f9 d13e 277b 633d 65e6 333e
00000340: 23c4 323e a452 003f ec4d 8bbe 106f 8d3e
00000350: fc16 bd3e 7e26 0bbe e6ff df3e dc0f 46be
00000360: c097 0c3f 5ab4 e1be 443f 6dbe c022 8bbd
00000370: 8088 643d 8018 9f3d 3983 c5be 5074 adbe
00000380: 098e 193e d353 d7bd 41c8 823e 98d7 bbbe
00000390: 10c0 70bd 18da 98bd 7e3c e9be 23c6 c23d
000003a0: 7d61 a53e 3167 293e 8020 9dbd f688 b73b
000003b0: be75 373e bef3 b1bd 3c89 8cbe 169e e53d
000003c0: 4c40 0abf 0136 133e 6569 98be 5f7f 97be
000003d0: 4934 fbbe 7391 a7be bc41 80bd 170e 89be
000003e0: d797 ff3e 9a65 24be 1ed4 493e 752d 003f
000003f0: 1e61 d83e b503 d0be 15f4 65be 156f c53d

fc11.bias f4 [300]
-0.22490829 -0.26089594 -0.36744085 0.09494306 -0.06969098 -0.22558504 -0.39515156 0.4110384
0.043894593 -0.44245827 -0.18751046 -0.011222457 0.3598539 -0.098891616 0.3726024 -0.25725192
0.1043238 -0.46140394 0.43205065 0.5154523 -0.07238414 -0.0076126656 -0.39861786 -0.31813753
0.40100098 -0.12516704 -0.25580066 0.06934591 -0.21475625 0.38705835 -0.52824235 0.26295614
-0.2175862 -0.4062195 -0.5563342 0.543113 -0.5032675 0.17328446 -0.43464908 0.079763204
0.31951714 0.4694264 -0.49646345 -0.16503239 0.2851867 -0.48076102 -0.28797522 -0.5113768
-0.28696993 -0.053264078 -0.41696328 -0.46626437 0.40108767 -0.28004327 0.027895447 -0.42181602
0.114319354 0.54757243 -0.36087036 -0.4593341 -0.36257175 -0.428505 -0.57682544 -0.43859583
-0.52277374 -0.17323983 0.15298136 -0.010052716 -0.0624684 -0.33479512 -0.15646648 -0.33845347
0.544725 -0.060224116 -0.14656323 -0.1613021 -0.32379135 0.43734512 -0.18948574 0.28713647
-0.35775542 0.22177054 -0.04558138 -0.23109938 0.39596626 0.31339872 0.33527917 0.27137345
-0.13917007 -0.10312739 0.5022908 -0.17186603 -0.20175831 -0.4356104 -0.39132702 -0.15050769
0.24980643 -0.3073507 -0.24642737 0.24513686 -0.4555367 -0.53927207 -0.29105985 -0.26581803
0.12999925 0.5438644 -0.29056388 0.25641054 0.0029835105 0.3137893 0.13802665 -0.4296317
0.14978364 0.08304327 -0.57942194 0.056635752 -0.35549212 -0.031259384 0.20805314 -0.4156691
0.10078087 -0.52662295 -0.3065228 -0.035958715 -0.11746572 -0.53562397 0.167144 0.013225907
-0.13279194 0.0710972 -0.58378965 0.12077308 -0.18240796 -0.25727925 0.5354251 -0.49868867
0.22006598 0.39885613 -0.21275279 0.09250053 0.4260739 -0.0016828767 0.19913468 -0.5435975
-0.17567305 0.09769936 0.54020554 0.35943055 -0.5568402 0.5366993 0.1281806 0.5479753
0.074293144 0.15218832 -0.49746406 0.14145924 -0.20779635 0.35385385 0.23772998 -0.42569882
0.23486742 -0.13181587 0.46000263 0.12465884 -0.4814755 0.315273 0.0127682295 0.5147022
0.47716984 0.43924156 -0.15087771 0.075686224 0.3209793 -0.11456561 -0.26971245 -0.15424278
0.5321753 0.5500147 0.26407066 -0.17977935 0.021853087 0.059750665 0.3774746 0.2820128
0.29486755 -0.021914935 0.3279818 -0.4042225 0.56237435 0.037437253 -0.4206636 0.059759613
0.29292178 -0.10834422 0.26038042 -0.2201076 0.2189805 -0.21337792 -0.30104187 0.33750352
-0.08523845 0.28869197 0.5297747 -0.28916824 -0.08776327 0.5285257 -0.5714985 -0.4971405
-0.49078512 -0.055074994 -0.32312098 -0.24408275 0.084327936 0.33890814 0.028667672 -0.13764396
-0.13142797 -0.2605158 -0.04636593 0.26290154 0.54167145 0.31243396 -0.5890077 -0.5273645
0.0649351 0.20648152 0.0727821 -0.28410774 0.17507048 0.12638591 -0.4304915 -0.049194053
0.5452963 -0.12970938 -0.18439719 -0.32894817 0.50479054 -0.11000136 -0.53798956 0.15476283
-0.16996348 -0.46577108 0.5317833 0.18642093 -0.40556097 0.53935426 0.31834233 -0.02438428
-0.19420597 0.4020405 0.013125499 0.23390032 0.047944758 -0.11104538 -0.21774316 0.0056963773
00000000: 5c4e 66be 2794 85be 3521 bcbe 8271 c23d
00000010: 25ba 8ebd c4ff 66be 4e51 cabe a073 d23e
00000020: d1ca 333d e489 e2be be02 40be 65de 37bc
00000030: c53e b83e b087 cabd bec5 be3e 86b6 83be
00000040: b7a7 d53d 233d ecbe be35 dd3e aff4 033f
00000050: 233e 94bd ab73 f9bb a417 ccbe ece2 a2be
00000060: 0050 cd3e ca2b 00be 4ef8 82be 3a05 8e3d
00000070: 10e9 5bbe 832c c63e e43a 07bf 30a2 863e
00000080: ebce 5ebe 01fc cfbe eb6b 0ebf 7409 0b3f
00000090: 24d6 00bf 7b71 313e 538a debe e45a a33d
000000a0: c097 a33e a858 f03e 7530 febe 40fe 28be
000000b0: fe03 923e 4f26 f6be 7d71 93be 97e9 02bf
000000c0: b9ed 92be 6f2b 5abd 367c d5be 34ba eebe
000000d0: 5d5b cd3e d561 8fbe fe84 e43c 45f8 d7be
000000e0: 4420 ea3d b52d 0c3f 00c4 b8be d72d ebbe
000000f0: 01a3 b9be 0265 dbbe d5aa 13bf a28f e0be
00000100: 80d4 05bf c865 31be 25a7 1c3e 26b4 24bc
00000110: ddde 7fbd 446a abbe c038 20be c649 adbe
00000120: 1973 0b3f 90ad 76bd ac14 16be 612c 25be
00000130: fbc7 a5be b3eb df3e 8d08 42be 8d03 933e
00000140: b82b b7be d117 633e 8bb3 3abd 51a5 6cbe
00000150: 17bc ca3e cc75 a03e b6a9 ab3e 76f1 8a3e
00000160: 9982 0ebe 7434 d3bd 2196 003f a6fd 2fbe
00000170: bb99 4ebe 5408 dfbe 045c c8be b01e 1abe
00000180: 42cd 7f3e 125d 9dbe 7557 7cbe 2805 7b3e
00000190: 1b3c e9be bc0d 0abf cc05 95be 4d19 88be
000001a0: 861e 053e b33a 0b3f cac4 94be 3e48 833e
000001b0: 0087 433b fea8 a03e dc56 0d3e b0f8 dbbe
000001c0: e260 193e 9712 aa3d ff54 14bf e4fa 673d
000001d0: 1003 b6be d709 00bd e20b 553e 95d2 d4be
000001e0: 3366 ce3d c3d0 06bf 8ef0 9cbe 7249 13bd
000001f0: de91 f0bd a71e 09bf cc27 2b3e 7ab1 583c
00000200: 9cfa 07be 699b 913d 3d73 15bf e057 f73d
00000210: 27c9 3abe 1bba 83be 9f11 093f 1f54 ffbe
00000220: fa58 613e df36 cc3e dedb 59be eb70 bd3d
00000230: 5c26 da3e f993 dcba f6e9 4b3e 3529 0bbf
00000240: a3e3 33be 9a16 c83d e94a 0a3f 4807 b83e
00000250: 148d 0ebf 2065 093f c641 033e 1c48 0c3f
00000260: 0127 983d 41d7 1b3e 9cb3 febe b1da 103e
00000270: 91c8 54be 552c b53e 7d6f 733e 32f5 d9be
00000280: 1681 703e bdfa 06be 7785 eb3e 224d ff3d
00000290: f583 f6be 766b a13e d631 513c 86c3 033f
000002a0: 9b4f f43e 45e4 e03e b07f 1abe 6101 9b3d
000002b0: 6657 a43e 60a1 eabd c017 8abe d2f1 1dbe
000002c0: a43c 083f c3cd 0c3f 4534 873e 1418 38be
000002d0: 3f05 b33c 1dbd 743d 5a44 c13e fb63 903e
000002e0: e1f8 963e f386 b3bc 3bed a73e 40f6 cebe
000002f0: c4f7 0f3f ce57 193d 3861 d7be 7fc6 743d
00000300: d8f9 953e 93e3 ddbd 9550 853e e363 61be
00000310: 6d3c 603e be7f 5abe 2922 9abe 43cd ac3e
00000320: 7f91 aebd 6fcf 933e 519f 073f dc0d 94be
00000330: 3bbd b3bd 764d 073f ba4d 12bf 3389 febe
00000340: 3048 fbbe 5196 61bd 1d70 a5be d4f0 79be
00000350: 20b4 ac3d 5e85 ad3e 77d8 ea3c 8af2 0cbe
00000360: 0e95 06be 5462 85be 34ea 3dbd 089b 863e
00000370: fbaa 0a3f 58f7 9f3e 35c9 16bf 5c01 07bf
00000380: b2fc 843d e46f 533e c80e 953d 9276 91be
00000390: ad45 333e 4f6b 013e 6269 dcbe b47f 49bd
000003a0: 8a98 0b3f 89d2 04be 9ed2 3cbe e56b a8be
000003b0: f439 013f 6548 e1bd afb9 09bf 267a 1e3e
000003c0: e80a 2ebe 8c79 eebe f322 083f 21e5 3e3e
000003d0: b0a5 cfbe 1f13 0a3f c4fd a23e 8bc1 c7bc
000003e0: eedd 46be 41d8 cd3e 550c 573c 9183 6f3e
000003f0: b961 443d c36b e3bd 10f8 5ebe ada8 ba3b

fc12.weight f4 [300, 1]
0.9910631 -0.37206692 0.14472948 0.6697171 0.18452434 0.59166837 -0.77574694 -0.35854745
0.17151047 0.42166218 0.2503127 -0.8851277 -0.8873733 -0.47228476 0.5283159 -0.42290768
-0.15443051 0.19232424 0.3073934 0.020150559 0.6925206 -0.12590106 -0.96842235 -0.66458046
-0.9155611 -0.2740818 -0.50107694 -0.36782935 -0.46059966 0.21379638 0.6648864 -0.03349299
-0.24397925 -0.19916546 -0.022387505 0.3340421 -0.05527134 -0.18776217 -0.078090265 0.5659592
-0.7250811 -0.13154083 0.06397964 -0.77885646 0.16725278 -0.3789057 -0.1859256 0.055906016
-0.60194916 -0.3569128 0.46020395 0.9510628 0.7079679 -0.2220208 0.75415415 -0.320048
-0.96156955 0.46197936 -0.28155237 0.284402 -0.11668278 0.024522334 -0.22718473 -0.21008691
0.03294468 0.4387332 -0.45678717 -0.69305265 0.8382136 0.51030356 -0.4157939 -0.99864215
0.099485435 0.4582082 -0.76869607 -0.15690877 -0.6240566 -0.3764808 0.77917 -0.111513846
0.013678916 0.9475381 -0.06899339 -0.5970057 -0.42192355 0.5758749 0.96510893 -0.6058319
-0.21714877 -0.6393961 -0.19260965 0.14198874 -0.16734962 0.94706196 -0.21870184 -0.62398666
0.34339193 -0.6516126 -0.46857098 0.44742423 -0.1609783 -0.5706069 0.12036364 0.2722342
-0.03371776 -0.1388106 0.08822666 0.019641088 -0.3954985 -0.7480086 -0.15420051 0.83644396
-0.4438618 -0.47305405 0.412315 0.28644907 -0.56710124 -0.21565005 0.92492783 -0.20967841
-0.8622087 -0.26598752 0.009824033 -0.9150157 0.61171234 0.0410265 -0.47988254 0.13745
-0.43797442 -0.81294197 0.24295446 -0.2908725 -0.57937294 0.17840447 0.20501623 -0.7884449
0.36383465 0.5130856 0.84948653 -0.93725944 0.07132176 -0.43050733 0.62193936 -0.74776727
0.6698486 0.64576554 -0.87607 0.45565733 -0.7821857 0.5180704 -0.3912313 -0.57309335
-0.14968883 -0.17113753 -0.6517994 0.042663325 0.0070780287 0.24900116 0.13678828 -0.72063595
-0.82099444 -0.26136267 0.35160673 0.90899396 0.2110492 -0.9014319 0.19841616 -0.7856772
-0.9807182 0.059970222 0.59639186 -0.32210886 0.3799256 -0.09459704 -0.77524126 -0.3283345
0.27101576 -0.48784068 -0.28929976 0.53246915 0.5841083 -0.9727427 -0.07227415 0.79443234
-0.62583363 -0.86260897 -0.6576159 0.6194195 0.81635946 -0.29522848 -0.8836986 0.35897067
0.08878092 -0.34515202 -0.75157005 0.11093407 0.71968573 -0.01669706 -0.061507262 0.14703158
-0.06875776 0.3949593 -0.42290622 0.41625062 0.52780765 -0.45729116 0.23075302 0.11746203
-0.28764284 0.43882895 0.64372057 0.36271593 -0.9337291 0.35810313 -0.52813756 -0.7174778
-0.6643333 -0.41437948 -0.66163105 0.95551693 -0.6148174 -0.023063542 -0.107702464 0.9642931
0.39315885 -0.6295138 0.49936983 -0.60200435 0.98535985 0.15106462 -0.64302677 -0.1437466
-0.6459515 -0.116436996 -0.73027325 -0.22810444 0.78616124 0.047383443 -0.9259325 0.9900242
-0.67392576 -0.56858873 -0.1448758 0.80324715 -0.088833295 0.11949195 -0.35189268 -0.52092415
-0.053479802 -0.74506646 -0.56581557 0.33091506 0.5840657 -0.32681656 -0.32958555 -0.15088117
00000000: 50b6 7d3f 8e7f bebe f733 143e 9472 2b3f
00000010: f3f3 3c3e 9477 173f 5a97 46bf 8893 b7be
00000020: 71a0 2f3e 1be4 d73e fc28 803e bb97 62bf
00000030: e62a 63bf 4fcf f1be b63f 073f 5b87 d8be
00000040: 0823 1ebe a5f0 443e ab62 9d3e c912 a53c
00000050: 0849 313f 35ec 00be 87ea 77bf f221 2abf
00000060: 3662 6abf 7354 8cbe 9446 00bf 2154 bcbe
00000070: b8d3 ebbe 70ed 5a3e ff35 2a3f f22f 09bd
00000080: b2d5 79be 08f2 4bbe 0066 b7bc 9107 ab3e
00000090: 3364 62bd ba44 40be caed 9fbd b4e2 103f
000000a0: ea9e 39bf a4b2 06be c207 833d 2363 47bf
000000b0: 5044 2b3e eeff c1be 4863 3ebe b5fd 643d
000000c0: 5719 1abf 46bd b6be da9f eb3e da78 733f
000000d0: 623d 353f 6c59 63be 3f10 413f 55dd a3be
000000e0: 6c29 76bf 8f88 ec3e a227 90be 249d 913e
000000f0: 62f7 eebd 10e3 c83c 1da3 68be 0621 57be
00000100: 00f1 063d a3a1 e03e 02e0 e9be e66b 31bf
00000110: 2b95 563f 41a3 023f f0e2 d4be 03a7 7fbf
00000120: 05bf cb3d 449a ea3e 44c9 44bf b1ac 20be
00000130: 2cc2 1fbf 17c2 c0be af77 473f 5f61 e4bd
00000140: 881d 603c db91 723f 684c 8dbd 5ed5 18bf
00000150: 5d06 d8be 8a6c 133f 6111 773f cd17 1bbf
00000160: 3f5c 5ebe 76af 23bf 773b 45be 7f65 113e
00000170: b35d 2bbe a772 723f 60f3 5fbe 97bd 1fbf
00000180: 11d1 af3e 15d0 26bf 89e8 efbe ca14 e53e
00000190: 7fd7 24be 4b13 12bf 3681 f63d 4862 8b3e
000001a0: a21b 0abd 5e24 0ebe 2eb0 b43d 59e6 a03c
000001b0: c87e cabe 7e7d 3fbf bde6 1dbe 3121 563f
000001c0: db41 e3be 2434 f2be f41a d33e 74a9 923e
000001d0: 8c2d 11bf 5ed3 5cbe 12c8 6c3f f0b5 56be
000001e0: b6b9 5cbf 842f 88be fbf4 203c 783e 6abf
000001f0: 2e99 1c3f 670b 283d 2ab3 f5be b1bf 0c3e
00000200: 2f3e e0be f71c 50bf 0ec9 783e 3eed 94be
00000210: c951 14bf a9af 363e c6ef 513e 86d7 49bf
00000220: 8948 ba3e 9459 033f f377 593f 3cf0 6fbf
00000230: 2511 923d 756b dcbe 6b37 1f3f ad6d 3fbf
00000240: 337b 2b3f e450 253f 2046 60bf eb4b e93e
00000250: 523d 48bf 43a0 043f 784f c8be 3fb6 12bf
00000260: 0748 19be ad3e 2fbe 53dc 26bf bdbf 2e3d
00000270: cfee e73b 29fa 7e3e 3a12 0c3e 997b 38bf
00000280: b12c 52bf 54d1 85be cc05 b43e d4b3 683f
00000290: 481d 583e 3ec4 66bf 9b2d 4b3e 2422 49bf
000002a0: 5910 7bbf 56a3 753d 23ad 183f 74eb a4be
000002b0: 9c85 c23e 18bc c1bd 3676 46bf 761b a8be
000002c0: 94c2 8a3e 41c6 f9be 191f 94be e64f 083f
000002d0: 1f88 153f aa05 79bf 7804 94bd eb5f 4b3f
000002e0: a236 20bf f1d3 5cbf 8459 28bf 4792 1e3f
000002f0: effc 503f 3028 97be 123a 62bf 01cb b73e
00000300: c5d2 b53d c4b7 b0be e566 40bf 6731 e33d
00000310: 533d 383f 46c8 88bc 0aef 7bbd 728f 163e
00000320: ded0 8cbd 1b38 ca3e 2a87 d8be cd1e d53e
00000330: 671e 073f 1122 eabe 854a 6c3e ef8f f03d
00000340: ec45 93be 30ae e03e dfca 243f e7b5 b93e
00000350: df08 6fbf 4b59 b73e 0634 07bf a0ac 37bf
00000360: bf11 2abf 8c29 d4be a760 29bf c29c 743f
00000370: ac64 1dbf c1ef bcbc 1c93 dcbd eadb 763f
00000380: 1e4c c93e d127 21bf 67ad ff3e f51c 1abf
00000390: 8b40 7c3f afb0 1a3e 679d 24bf 4f32 13be
000003a0: 145d 25bf 8576 eebd 30f3 3abf 3694 69be
000003b0: dd41 493f 2415 423d ea09 6dbf 3a72 7d3f
000003c0: 6686 2cbf 088f 11bf 525a 14be 9ba1 4d3f
000003d0: 3bee b5bd 32b8 f43d 472b b4be 495b 05bf
000003e0: a30d 5bbd adbc 3ebf 4ad9 10bf b36d a93e
000003f0: 5485 153f 8054 a7be 70bf a8be 9880 1abe

fc12.bias f4 [300]
0.57408303 0.866513 0.79127574 0.22012293 0.94960827 0.036431596 -0.2829439 0.5007482
-0.27877772 0.47634947 0.17733625 -0.0760074 -0.8743597 0.49682742 0.90208304 -0.20554076
-0.5688434 -0.2640429 -0.37571543 -0.6612881 -0.32923913 0.87886673 -0.05053653 -0.82763904
0.27389193 0.32841128 -0.17544642 -0.46615195 -0.8609326 -0.24401918 -0.5644575 0.10744291
-0.66461766 0.30821338 -0.8067279 0.24990006 0.53620213 0.46844986 0.5720691 -0.48541433
-0.56408215 -0.2138856 0.4654597 0.017112294 0.56503195 -0.8298907 -0.7690014 0.72999024
0.35257077 0.8198155 -0.5714922 0.6426928 0.5386767 -0.76059437 0.03637819 -0.14162885
-0.37784094 0.22473164 -0.650624 -0.106024034 0.4291163 -0.5399477 -0.7608731 0.051347774
0.15933818 0.3735921 0.672391 0.5541544 0.92102337 -0.41967744 -0.02357404 0.77466154
-0.35202092 -0.8668165 -0.20652662 0.013303629 -0.8450023 0.115740456 0.3685074 0.4900821
-0.5851364 0.71458626 -0.0908675 -0.11856269 -0.09813571 0.378609 0.8270781 0.69015574
-0.59200376 -0.8735993 0.1544013 0.5822615 0.112183265 0.20163591 -0.6314436 -0.30871534
-0.49943796 0.79471874 0.44693193 -0.77831477 0.189099 -0.11181409 -0.0003502722 -0.9587951
0.67208827 -0.33728296 0.6549642 -0.47911048 -0.9265562 0.75139457 -0.7632239 0.9223848
-0.0065067178 0.8891674 0.3724246 -0.10184915 0.09385968 -0.034746148 0.90074325 0.27195323
0.16327147 -0.41785088 0.84586155 -0.3910004 -0.9039102 -0.2941593 -0.39286715 0.3009906
-0.95000184 0.18730935 -0.9817544 0.44696313 -0.9596096 -0.24056153 0.17354919 0.6080723
-0.5257126 0.0874768 0.5356672 0.74857795 0.063014254 -0.62613976 0.10037494 -0.28987244
0.9507011 0.08391626 0.0030876435 -0.098042116 -0.42696205 0.5712435 0.72860044 0.38820675
0.2583802 0.7933781 0.9582338 -0.99186796 -0.7198329 -0.360302 -0.9623194 -0.12971638
-0.66935205 -0.5833188 0.63229495 -0.28484517 0.39216954 -0.77762115 -0.8362824 0.1506845
-0.33240727 -0.91909826 -0.5367395 0.2870736 -0.77181613 0.8037022 -0.4073355 0.0078755785
0.701175 0.40509558 0.34466985 -0.99123913 0.71340954 -0.4527404 -0.2569086 0.91418993
-0.2419039 -0.98156947 0.6359124 -0.105545565 -0.17272425 0.9640993 -0.1384872 -0.8861754
-0.81326985 0.22058862 -0.3709105 0.21648417 0.9113196 0.8184153 0.33207184 -1.0072541
-0.8431875 0.3350053 -0.71077555 -0.74997795 0.006612833 -0.08411262 0.6575135 -0.8016438
-0.9379517 -0.17739323 0.112389445 0.7538387 0.022427686 -0.6767741 0.15138237 0.18199995
0.91924214 0.32037455 -0.9554404 -0.26765043 0.74308354 0.7302151 -0.52152604 -0.5183829
0.81286407 0.21598476 -0.46183625 0.5591384 -0.29884496 0.65916586 0.7835966 0.8252262
-0.5997697 0.07766324 -0.23276937 -0.1805664 -0.6563505 -0.123195596 -0.31148538 0.00882983
0.3412244 -0.5348494 0.9440276 0.48979846 -0.83984405 -0.47559088 0.7966712 -0.8681143
-0.7923968 -0.9079298 -0.44977933 0.5688136 0.23769434 -0.43141475 0.46190006 -0.639276
00000000: 1bf7 123f ccd3 5d3f 0c91 4a3f e867 613e
00000010: 8719 733f 4c39 153d 06de 90be 0931 003f
00000020: f4bb 8ebe 14e4 f33e a297 353e c5a9 9bbd
00000030: 0ad6 5fbf 2a60 fe3e eaee 663f 4779 52be
00000040: b99f 11bf a230 87be c65d c0be 2d4a 29bf
00000050: 0892 a8be 69fd 603f 64ff 4ebd 27e0 53bf
00000060: 903b 8c3e 8625 a83e 3aa8 33be 78ab eebe
00000070: 1466 5cbf 2ae0 79be 4980 10bf 070b dc3d
00000080: 6224 2abf 25ce 9d3e b885 4ebf cde5 7f3e
00000090: 8b44 093f a9d8 ef3e 1f73 123f 3a88 f8be
000000a0: b067 10bf d404 5bbe bc50 ee3e 152f 8c3c
000000b0: efa5 103f b873 54bf 47dd 44bf a4e0 3a3f
000000c0: 2884 b43e 6edf 513f 504d 12bf 8487 243f
000000d0: b7e6 093f 50b6 42bf 4c01 153d 2707 11be
000000e0: 5e74 c1be 0d20 663e 4b8f 26bf 2123 d9bd
000000f0: 22b5 db3e 033a 0abf 94c8 42bf 0b52 523d
00000100: 8c29 233e 7747 bf3e d121 2c3f 10dd 0d3f
00000110: 30c8 6b3f f6df d6be 581e c1bc 3850 463f
00000120: 163c b4be b0e7 5dbf b77b 53be 77f7 593c
00000130: 1252 58bf 5509 ed3d 00ad bc3e 0aec fa3e
00000140: 80cb 15bf 20ef 363f bd18 babd ffd0 f2bd
00000150: 60fb c8bd 0ad9 c13e 64bb 533f 0cae 303f
00000160: 8f8d 17bf 34a4 5fbf 601b 1e3e 170f 153f
00000170: 57c0 e53d a579 4e3e 4aa6 21bf f00f 9ebe
00000180: 55b6 ffbe b072 4b3f 43d4 e43e a33f 47bf
00000190: 2ba3 413e c9fe e4bd bda4 b7b9 9873 75bf
000001a0: fa0d 2c3f 5ab0 acbe bcab 273f f84d f5be
000001b0: ca32 6dbf 655b 403f a462 43bf 6921 6c3f
000001c0: 4e36 d5bb 7aa0 633f 70ae be3e 4a96 d0bd
000001d0: 8139 c03d fa51 0ebd 1c97 663f 743d 8b3e
000001e0: a330 273e 8df0 d5be 628a 583f 3431 c8be
000001f0: a966 67bf 0c9c 96be e225 c9be 711b 9a3e
00000200: 5233 73bf 06ce 3f3e 4254 7bbf 5ad8 e43e
00000210: faa8 75bf c355 76be e1b6 313e a0aa 1b3f
00000220: 1a95 06bf 0927 b33d 7c21 093f cea2 3f3f
00000230: 9e0d 813d b24a 20bf 6091 cd3d 296a 94be
00000240: 2661 733f 4adc ab3d 105a 4a3b 4eca c8bd
00000250: c59a dabe 043d 123f 8f85 3a3f 09c3 c63e
00000260: 694a 843e d41a 4b3f cf4e 753f 0feb 7dbf
00000270: f846 38bf 8179 b8be 905a 76bf 5fd4 04be
00000280: a85a 2bbf 6254 15bf 15de 213f 3ad7 91be
00000290: 72ca c83e 2e12 47bf 9a16 56bf 0a4d 1a3e
000002a0: 4931 aabe 064a 6bbf c367 09bf 50fb 923e
000002b0: be95 45bf 6dbf 4d3f 478e d0be 9208 013c
000002c0: 3480 333f b068 cf3e 9178 b03e d9c1 7dbf
000002d0: 02a2 363f 97cd e7be 8689 83be 5a08 6a3f
000002e0: a8b5 77be 2348 7bbf 28cb 223f 4628 d8bd
000002f0: a0de 30be 36cf 763f 97cf 0dbe 64dc 62bf
00000300: 7432 50bf fce1 613e fbe7 bdbe 07ae 5d3e
00000310: 3e4c 693f aa83 513f 5205 aa3e b4ed 80bf
00000320: 23db 57bf d185 ab3e 63f5 35bf 8efe 3fbf
00000330: 77b0 d83b 3d43 acbd ce52 283f 8738 4dbf
00000340: 9a1d 70bf 92a6 35be 702c e63d 93fb 403f
00000350: 44ba b73c 1141 2dbf fb03 1b3e 325e 3a3e
00000360: 7453 6b3f 2208 a43e be97 74bf 7a09 89be
00000370: b93a 3e3f 60ef 3a3f bb82 05bf beb4 04bf
00000380: dc17 503f 1c2b 5d3e cd75 ecbe b223 0f3f
00000390: 3502 99be 18bf 283f c999 483f 0642 533f
000003a0: 828a 19bf e80d 9f3d 185b 6ebe 66e6 38be
000003b0: 9606 28bf f94d fcbd 037b 9fbe feaa 103c
000003c0: f7b4 ae3e e4eb 08bf cbab 713f ddc6 fa3e
000003d0: 0500 57bf a680 f3be a5f2 4b3f bd3c 5ebf
000003e0: 84da 4abf 166e 68bf 7a49 e6be c59d 113f
000003f0: 2566 733e 65e2 dcbe 2a7e ec3e 98a7 23bf

fc2.weight f4 [300, 300]
-0.04121077 -0.03084214 0.048392262 -0.016296925 0.051480092 -0.03438277 -0.06081447 0.035886966
0.014374151 -0.03987218 0.018710287 0.003527396 -0.031883035 0.024736028 -0.0049860184 0.030889347
0.008360298 -0.032878973 0.037687667 0.023291321 0.020907082 0.030286847 -0.047358215 -0.060380656
-0.05549486 0.04880588 0.0018261265 -0.0036092957 -0.0042280667 0.000828574 0.011455142 -0.021427091
-0.013916246 -0.025007505 -0.001973495 -0.01816998 -0.02848543 -0.029670795 0.029262396 -0.03666215
-0.010183603 0.014609821 0.040401418 0.03168682 0.054126583 0.02061276 -0.01847563 0.04531133
-0.03484461 -0.023834422 0.06005522 0.056057956 -0.010546026 -0.011561485 -0.009159456 -0.0013347587
-0.02398723 0.04970803 -0.01612285 0.0375802 -0.021866797 -0.044664893 -0.053535663 0.041889187
-0.029069325 -0.035495553 -0.029705662 0.002968472 -0.01931432 -0.025186628 -0.004902568 -0.05866405
0.044308696 -0.04379422 -0.024194513 -0.048257682 0.05190988 0.054618865 0.029277349 0.012018853
0.0420831 -0.054985903 0.05404867 -0.001386408 0.0018568112 -0.0024592448 -0.041229405 0.037956517
0.049518846 -0.033396088 -0.006552719 0.027069122 0.046486292 -0.053691767 -0.013293654 -0.026206499
-0.033168994 0.043563854 0.049179997 0.039637286 -0.030661115 0.00773829 0.017412245 0.036089256
0.013475031 0.034869183 -0.04281865 -0.024609089 -0.0170521 0.031930957 -0.0010431109 0.05486601
-0.018170957 -0.026827399 -0.03594719 0.045948174 0.029514816 0.038953397 0.014324108 -7.017417e-05
0.046668097 -0.035651032 -0.03518062 -0.057083543 -0.016950876 0.01091085 0.017411109 -0.04042954
-0.009897318 -0.0022686278 -0.048577998 -0.00095290045 -0.007387083 -0.009501274 0.046096712 0.023927819
-0.0049843034 -0.012047304 0.051907375 0.046964835 -0.007772824 0.03799731 -0.05297047 0.0024760833
0.05298027 -0.050336156 -0.010105022 -0.04761966 -0.055990156 -0.056681793 -0.030617017 0.038836736
-0.0051223706 -0.046648677 0.053472217 0.020563435 0.006407036 0.008050411 0.004651358 0.05808943
-0.051551335 -0.019543717 0.008128822 0.016012376 0.039211784 0.0016341845 -0.028716875 0.050616447
0.052498538 0.04483468 -0.027322682 -0.03046099 -0.029012717 -0.026884926 -0.017174883 -0.02181652
0.005342564 0.028983055 0.0023062194 0.033402935 0.01394275 0.01723638 0.036104012 -0.05294983
-0.026095856 -0.0018148284 -0.01141213 -0.05991421 -0.005823155 -0.020779949 -0.02947892 -0.0106146
0.045960445 -0.031133806 -0.020458221 0.014119569 0.0035498734 0.004727487 0.036104653 -0.009173695
0.05290424 -0.016747091 0.01953207 -0.0047059436 0.049723063 0.03230378 0.04969926 -0.033220973
0.024832182 -0.006100116 -0.04090244 0.013044512 0.04607215 -0.00043959924 0.042266663 0.05706898
-0.010438023 0.045366075 0.016278338 0.024628872 0.05350719 0.0401068 -0.0071370997 -0.023018293
0.02982596 0.024643198 0.0315322 -0.035039064 0.016829388 -0.04127561 0.05423693 -0.037720192
0.029388431 -0.024612037 -0.05245989 -0.014320964 -0.053074524 -0.04315463 -0.036259167 0.056686327
0.0051122317 0.036422282 -0.025118185 0.045519497 0.06335018 -0.03553243 0.03392015 0.05130471
0.042026017 -0.0546324 -0.048012882 -0.042225566 -0.044670198 0.0056467997 0.054747414 -0.057825904
00000000: a0cc 28bd a8a8 fcbc f736 463d 2181 85bc
00000010: cadc 523d f3d4 0cbd 9818 79bd 36fe 123d
00000020: 8f81 6b3c 0351 23bd 5146 993c e22b 673b
00000030: c997 02bd 36a3 ca3c c161 a3bb a80b fd3c
00000040: a2f9 083c 1aac 06bd 625e 1a3d 71cd be3c
00000050: 5445 ab3c 1f1c f83c b0fa 41bd b551 77bd
00000060: 944e 63bd ade8 473d a35a ef3a ef89 6cbb
00000070: 988b 8abb a934 593a 59ae 3b3c de87 afbc
00000080: f700 64bc 8adc ccbc c055 01bb 36d9 94bc
00000090: 475a e9bc 2b10 f3bc b1b7 ef3c 0d2b 16bd
000000a0: 20d9 26bc 085e 6f3c f57b 253d 0aca 013d
000000b0: d6b3 5d3d 17dc a83c 345a 97bc 6098 393d
000000c0: 39b9 0ebd 6840 c3bc 76fc 753d 079d 653d
000000d0: 3dc9 2cbc 626c 3dbc 8b11 16bc 12f3 aeba
000000e0: de80 c4bc a69a 4b3d 1114 84bc b2ed 193d
000000f0: ff21 b3bc 89f2 36bd 3648 5bbd ff93 2b3d
00000100: cb22 eebc c963 11bd 4a59 f3bc b28a 423b
00000110: 1139 9ebc 3054 cebc b9a5 a0bb b749 70bd
00000120: 097d 353d 9161 33bd 9233 c6bc d9a9 45bd
00000130: 749f 543d 08b8 5f3d 0dd7 ef3c b9ea 443c
00000140: 545f 2c3d e638 61bd 2362 5d3d 22b8 b5ba
00000150: 3f60 f33a 482b 21bb 2ae0 28bd 4b78 1b3d
00000160: 46d4 4a3d 56ca 08bd 31b8 d6bb 10c0 dd3c
00000170: 6968 3e3d e6eb 5bbd a0cd 59bc 03af d6bc
00000180: 36dc 07bd 0370 323d f770 493d b55a 223d
00000190: 052d fbbc 7b91 fd3b 20a4 8e3c 54d2 133d
000001a0: 60c6 5c3c fdd2 0e3d 9c62 2fbd 0099 c9bc
000001b0: d8b0 8bbc 09ca 023d feb8 88ba 2ebb 603d
000001c0: 42db 94bc 22c5 dbbc 5c3d 13bd 2734 3c3d
000001d0: 0ec9 f13c 998d 1f3d aaaf 6a3c 782a 93b8
000001e0: 0c27 3f3d d106 12bd 8e19 10bd 6fd0 69bd
000001f0: 90dc 8abc 6cc3 323c bea1 8e3c 7299 25bd
00000200: 5c28 22bc 42ad 14bb b9f9 46bd 11cc 79ba
00000210: 580f f2bb 3bab 1bbc e8cf 3c3d 4604 c43c
00000220: 5e53 a3bb 0e62 45bc d49c 543d 335e 403d
00000230: 2cb3 febb 11a3 1b3d 90f7 58bd c945 223b
00000240: d701 593d 492d 4ebd 898f 25bc d50c 43bd
00000250: ef55 65bd 2b2b 68bd 8ad0 fabc 4513 1f3d
00000260: 8fd9 a7bb af12 3fbd af05 5b3d a674 a83c
00000270: 1df2 d13b dfe5 033c 6b6a 983b 2fef 6d3d
00000280: 7e27 53bd 251a a0bc c02e 053c 632c 833c
00000290: 899c 203d 2232 d63a a73f ebbc 3153 4f3d
000002a0: b508 573d 92a4 373d d1d3 dfbc 5389 f9bc
000002b0: 14ac edbc c73d dcbc 57b2 8cbc 8fb8 b2bc
000002c0: ad10 af3b df6d ed3c f123 173b 84d1 083d
000002d0: 2270 643c 4f33 8d3c cde1 133d ece1 58bd
000002e0: fac6 d5bc 89df edba f1f9 3abc 9a68 75bd
000002f0: 2ad0 bebb b63a aabc c77d f1bc dce8 2dbc
00000300: 0541 3c3d 530c ffbc 0098 a7bc c455 673c
00000310: fea4 683b 09e9 9a3b 79e2 133d 444d 16bc
00000320: 1eb2 583d 3231 89bc b801 a03c 5134 9abb
00000330: 69aa 4b3d f850 043d 7491 4b3d b712 08bd
00000340: dc6c cb3c 7be3 c7bb 5189 27bd a6b8 553c
00000350: 27b6 3c3d 037a e6b9 cf1f 2d3d 2ac1 693d
00000360: 3e04 2bbc c7d1 393d 265a 853c 7dc2 c93c
00000370: 5b2a 5b3d 0747 243d 55de e9bb dc90 bcbc
00000380: 9255 f43c 88e0 c93c e827 013d 1f85 0fbd
00000390: c9dd 893c 9d10 29bd 8b27 5e3d 7d80 1abd
000003a0: 02c0 f03c 2f9f c9bc 2ee0 56bd 7aa2 6abc
000003b0: ac64 59bd e9c2 30bd 7e84 14bd ec2f 683d
000003c0: 8284 a73b 882f 153d a7c4 cdbc a772 3a3d
000003d0: bdbd 813d 748a 11bd dbef 0a3d e324 523d
000003e0: 7923 2c3d 39c6 5fbd 28a9 44bd b7f4 2cbd
000003f0: 19f8 36bd ca08 b93b d33e 603d dbda 6cbd

fc2.bias f4 [300]
0.03564064 0.034220684 -0.0045938673 0.048684385 0.04177823 -0.03145993 -0.008944057 -0.04141651
0.0022589054 0.027838906 0.014951955 0.003025561 -0.031102695 -0.039672237 -0.038990065 -0.04721958
-0.006552823 0.002831703 0.018460633 0.04783169 0.0007967761 -0.023817461 0.04729147 0.006846118
-0.03018239 -0.030549254 -0.057791267 -0.030958083 0.041541826 -0.0044733407 0.019619154 -0.043176804
0.016718064 -0.038643148 -0.01002295 -0.0045099016 0.00051426823 -0.054293644 -0.03977766 0.03395768
0.03362926 0.04295671 0.03740475 -0.016419629 0.038223617 -0.044856813 0.041231927 -0.008510571
-0.024965009 -0.027033478 0.017350601 -0.023587393 0.041541614 0.029229945 -0.011154227 -0.017246783
0.017016143 -0.057268858 -0.0128978845 -0.021978911 0.04416708 -0.022527294 -0.046977643 -0.046648715
0.011093512 0.025286913 -0.00075495796 -0.022632455 -0.065337464 -0.033322997 -0.023595061 -0.04086733
0.029647458 -0.00501463 0.0065821502 0.0576562 -0.020649862 0.03388143 0.03305981 0.04318617
0.020241035 -0.006690931 0.016004462 -0.05250661 -0.0575882 0.0114418175 0.02219267 -0.051111564
0.0028669606 -0.028348716 0.021897512 0.03404566 0.020281984 -0.050880603 -0.009808049 0.011140903
-0.029174857 0.03580481 -0.010986158 -0.045319255 0.00532104 -0.039476488 0.0072081685 -0.033565942
0.033450928 0.04084131 0.013344886 -0.05627868 -0.056637086 0.02342199 0.04330782 0.01213319
-0.04463226 -0.001041409 0.042573486 -0.015752824 0.014787238 -0.047993213 0.027492972 0.05507743
-0.05843052 0.047372583 0.0061293384 0.029492207 -0.040981635 0.020146485 0.047576804 -0.007876463
-0.04275036 0.018786015 -0.0384485 0.022855362 -0.058488697 0.04378919 -0.009324719 0.042733043
0.048860338 0.028507948 -0.060793627 -0.014028999 -0.057256967 -0.025307763 0.004144851 -0.06392142
0.021562267 -0.016158503 0.015046495 -0.026261214 -0.060167685 -0.04900982 0.02115818 -0.033638388
-0.00076809764 -0.049915813 0.026396835 -0.05812183 -0.023346832 -0.01390678 0.012366489 -0.03925152
0.002730458 0.0072722645 -0.021296864 -0.02066076 -0.029694954 0.0478948 0.015789652 0.057346642
-0.033285122 -0.02797567 -0.05095411 0.048853002 -0.0030219185 -0.011173829 -0.04593776 0.0027686148
0.006155114 -0.022385256 -0.056329496 -0.044411052 -0.0567665 -0.017343633 0.025090268 0.0046828045
0.047289412 -0.0025066787 0.002807274 -0.019841446 0.043819614 0.051372882 0.050483327 -0.0056911567
-0.041445352 -0.033276502 0.0074776434 -0.027686568 0.011186843 -0.020714406 -0.018289184 -0.045578476
-0.059420977 0.043385573 -0.04358378 -0.014623263 -0.008375887 0.028223678 -0.046820782 -0.013497662
0.03628883 -0.054197412 0.008832021 -0.028973324 0.043042272 -0.007465576 -0.041063324 -0.017992295
-0.036232438 -0.06317575 -0.03263487 0.005987321 0.041904535 0.033616733 -0.029912984 -0.03406393
0.03707203 -0.03550488 -0.022864476 -0.026381748 0.02852125 0.033656687 0.015648376 -0.020052202
-0.02128195 -0.064186595 0.021266975 0.04812847 -0.04893201 -0.017437225 -0.02071829 -0.032087814
0.024915647 -0.053680386 -0.0050407164 0.01382088 0.008661133 -0.030525692 -0.04646634 -0.028569125
-0.008547987 -0.058350913 0.043252658 0.03791742 -0.05559221 -0.040463332 -0.0332512 0.009410843
00000000: ebfb 113d fd2a 0c3d 2788 96bb 4769 473d
00000010: a61f 2b3d 21dc 00bd 188a 12bc 5ca4 29bd
00000020: 250a 143b 6b0e e43c 0bf9 743c 7e48 463b
00000030: 14cb febc 5b7f 22bd 0cb4 1fbd 5169 41bd
00000040: 10b9 d6bb 1894 393b c13a 973c 2aeb 433d
00000050: bdde 503a d61c c3bc b3b4 413d 6655 e03b
00000060: 0f41 f7bc 6e42 fabc 89b6 6cbd ce9b fdbc
00000070: c327 2a3d 1a95 92bb 59b8 a03c 29da 30bd
00000080: 52f4 883c 4748 1ebd 4d37 24bc ccc7 93bb
00000090: f5cf 063a 0363 5ebd e6ed 22bd 3517 0b3d
000000a0: d6be 093d 60f3 2f3d b935 193d 7582 86bc
000000b0: 5e90 1c3d c7bb 37bd cfe2 283d ec6f 0bbc
000000c0: 6b83 ccbc 5075 ddbc d922 8e3c 593a c1bc
000000d0: 8a27 2a3d a373 ef3c 38c0 36bc 2049 8dbc
000000e0: 7065 8b3c c092 6abd a651 53bc 1e0d b4bc
000000f0: 8ae8 343d 298b b8bc a16b 40bd b912 3fbd
00000100: 90c1 353c 8026 cf3c 5fe8 45ba b367 b9bc
00000110: a6cf 85bd b27d 08bd 6e4a c1bc 8064 27bd
00000120: 3adf f23c c451 a4bb 14af d73b e828 6c3d
00000130: e629 a9bc 41c7 0a3d b969 073d fbe3 303d
00000140: 87d0 a53c 993f dbbb ca1b 833c 2c11 57bd
00000150: 9be1 6bbd 7676 3b3c 67cd b53c 5c5a 51bd
00000160: 9ee3 3b3b 913b e8bc 6962 b33c 7673 0b3d
00000170: 6726 a63c 2e68 50bd f0b1 20bc 5688 363c
00000180: 1c00 efbc 10a8 123d 49ff 33bc afa0 39bd
00000190: 1e5c ae3b 19b2 21bd 8032 ec3b 717c 09bd
000001a0: d703 093d 3849 273d 82a4 5a3c 7984 66bd
000001b0: 4afc 67bd 79df bf3c 8a63 313d 4aca 463c
000001c0: 51d0 36bd e37f 88ba 8961 2e3d 110c 81bc
000001d0: 2c46 723c 8894 44bd f138 e13c df98 613d
000001e0: d754 6fbd c109 423d 9ed8 c83b a499 f13c
000001f0: 5cdc 27bd 3e0a a53c e5df 423d 480c 01bc
00000200: 001b 2fbd 21e5 993c 2d7c 1dbd 2b3b bb3c
00000210: d891 6fbd 4b5c 333d b5c6 18bc d808 2f3d
00000220: c721 483d 8089 e93c bd02 79bd e3d9 65bc
00000230: 4886 6abd 3a52 cfbc 88d1 873b 3ce9 82bd
00000240: 5aa3 b03c d65e 84bc 9385 763c c221 d7bc
00000250: 6472 76bd 85be 48bd eb53 ad3c 68c8 09bd
00000260: 295a 49ba 8674 4cbd 2d3e d83c 2811 6ebd
00000270: db41 bfbc 43d9 63bc d09c 4a3c 34c6 20bd
00000280: 7cf1 323b 2d4c ee3b c376 aebc c140 a9bc
00000290: d542 f3bc 562d 443d 4d59 813c 50e4 6a3d
000002a0: fb55 08bd 3b2d e5bc 42b5 50bd 161a 483d
000002b0: 610b 46bb 7012 37bc 3c29 3cbd a671 353b
000002c0: d7b0 c93b 4961 b7bc c2b9 66bd 5de8 35bd
000002d0: fd83 68bd 3c14 8ebc 1b8a cd3c 3672 993b
000002e0: 8bb2 413d 1747 24bb 3efa 373b 878a a2bc
000002f0: 327c 333d 5f6c 523d 9bc7 4e3d e27c babb
00000300: 9ac2 29bd f14c 08bd 0507 f53b f1ce e2bc
00000310: 0549 373c 42b1 a9bc 33d3 95bc 7fb0 3abd
00000320: 6963 73bd 12b5 313d e884 32bd 6996 6fbc
00000330: 043b 09bc 5835 e73c 26c7 3fbd 4c25 5dbc
00000340: 99a3 143d 1bfe 5dbd 2eb4 103c 7759 edbc
00000350: 184d 303d caa1 f4bb 0432 28bd 9464 93bc
00000360: 7768 14bd 4a62 81bd 24ac 05bd 4a31 c43b
00000370: 17a4 2b3d b3b1 093d 130c f5bc 9f86 0bbd
00000380: d7d8 173d 916d 11bd 484e bbbc 891e d8bc
00000390: 65a5 e93c 98db 093d 0631 803c 8444 a4bc
000003a0: 7c57 aebc 4374 83bd 1438 ae3c 5c22 453d
000003b0: ee6c 48bd 83d8 8ebc 67b9 a9bc 836e 03bd
000003c0: e61b cc3c f7df 5bbd 982c a5bb f970 623c
000003d0: 6de7 0d3c 0411 fabc 7d53 3ebd cc09 eabc
000003e0: db0c 0cbc 5e01 6fbd b329 313d 4c4f 1b3d
000003f0: a8b4 63bd e1bc 25bd 6932 08bd f02f 1a3c

fc3.weight f4 [1, 300]
-0.0031631764 0.013862473 0.0402974 -0.03725619 -0.004511054 0.027956799 -0.036197715 -0.010879957
-0.01705361 -0.010159112 -0.0042111366 -0.0018002606 0.0034466817 0.017892167 0.00054894015 0.030590897
-0.029968163 0.014571198 -0.028537357 -0.044518415 -0.001203004 0.012068418 0.046308808 -0.011172805
0.02503386 -0.041592024 0.037346862 0.011087055 -0.009887141 0.0047735358 0.014511944 -0.023682393
-0.04999522 0.041984275 -0.00014092994 0.018731954 -0.03131546 0.004163721 0.0123692695 -0.0027036855
-0.0013270923 -0.008004291 -0.00966394 -0.02980486 0.019993054 -0.023853812 -0.00055545114 -0.010336056
-0.02908011 -0.0012897803 -0.016473586 0.043071806 -0.00059279526 0.0007636672 -0.04247274 -0.0044656917
-0.013118206 0.036992747 -0.008897403 -0.0007363163 -0.0021897226 0.0015775651 -0.0025302498 -0.00056684157
0.029030813 0.0012774701 -0.01928854 0.003934953 -0.0017514784 0.0050672153 0.006804935 -0.027587328
-0.004806881 -0.032641765 -0.0014600733 -0.012488371 -0.023315033 -0.03250829 0.0043628765 0.0495329
0.005899015 -0.032323793 -0.00039860202 -0.0022107419 0.030204548 -0.008399236 -0.0027108097 -0.04991573
-0.003382355 -0.00065058767 0.002319806 -0.001846615 -0.01033059 0.033742573 0.03151136 0.009602071
0.0049619195 0.017596683 0.04409046 0.026108794 -0.043433793 0.033524107 0.000524757 0.01795508
0.035382852 -0.0054237135 0.020719983 -0.033005115 0.00049068657 -0.048027333 0.024841174 0.0037410236
-0.04016794 0.04140166 -0.02815508 -0.042067405 0.03731717 0.006391914 0.0003112961 0.0027001207
0.024366047 0.023284826 -0.024099078 -0.0012265389 0.011863674 -0.0466064 -0.032656 -0.031436488
-0.024387337 -0.0058815195 -0.04546236 0.042560775 0.01579404 -0.0026040166 -0.043587293 0.004820264
0.024271727 0.020671168 0.017149592 0.020251496 -0.0047232206 0.0021129746 0.001211103 0.024251672
0.03089484 0.02145729 0.02763986 -0.0037742248 0.034705274 -0.017493425 -0.027354307 0.0444886
0.005397839 -0.001412198 -0.030767862 -0.034455653 -0.0012994102 0.031145139 0.055050492 -0.02664343
-0.051556136 -0.0026734625 0.040523093 -0.026478687 -0.0148825385 -0.021507408 0.0017072519 0.03180067
0.039249185 0.020638708 0.0017643849 0.048685193 0.0009018642 -0.0036330582 -0.0039490275 0.009101703
0.024121055 -0.005091834 0.020782188 0.029578436 -0.0057477024 -0.004720384 -0.0005714385 -0.00086151034
-0.0003222117 -0.004008828 -0.008667639 0.006596831 0.02978492 0.04941921 0.018705783 0.044519547
0.001690142 0.026429959 0.032663587 -0.031736087 0.0028855945 -0.006556536 -0.0003892048 0.049869
-0.042286366 -0.0042504836 -0.012108717 0.03633171 0.044237528 -0.017624425 0.01810955 0.029100778
0.032247018 0.036294572 0.017862134 0.021130582 -0.027075732 0.043774012 0.0048218817 -0.015400692
0.045955174 0.03173287 -0.022205045 -0.0042237565 0.036868494 0.00019329008 0.005115549 -0.01495225
0.003310961 0.03707716 0.009295061 -0.006308319 0.041772828 0.033588927 0.0356742 -0.011159907
0.030242413 0.032275923 0.056213297 0.003163441 0.023302156 -0.038299106 0.023144227 0.016337883
0.02525035 0.00334276 -0.006169216 -0.01809779 0.03942343 0.0037597793 -0.039081473 0.004486347
-0.021439975 -0.003800319 -8.433872e-05 -0.025026698 0.00059828156 -0.019586954 -0.021513855 0.004939586
00000000: 4b4d 4fbb 6d1f 633c e30e 253d f299 18bd
00000010: 77d1 93bb a805 e53c 0e44 14bd d941 32bc
00000020: 03b4 8bbc 6772 26bc 93fd 89bb b9f6 ebba
00000030: b9e1 613b 9892 923c c0e6 0f3a c399 fa3c
00000040: cb7f f5bc 09bc 6e3c 2dc7 e9bc f158 36bd
00000050: 1eae 9dba 9dba 453c 4eae 3d3d 240e 37bc
00000060: cf13 cd3c 665c 2abd 06f9 183d 7ba6 353c
00000070: adfd 21bc 526b 9c3b 81c3 6d3c 9401 c2bc
00000080: cac7 4cbd b4f7 2b3d 98c6 13b9 c173 993c
00000090: a444 00bd d36f 883b 7aa8 4a3c 5130 31bb
000000a0: d4f1 adba 6e24 03bc 8155 1ebc 5229 f4bc
000000b0: 79c8 a33c 1269 c3bc b29b 11ba 9058 29bc
000000c0: 6939 eebc d80d a9ba 9df3 86bc 106c 303d
000000d0: d165 1bba d730 483a e5f7 2dbd f054 92bb
000000e0: beed 56bc b585 173d 6ac6 11bc 5a05 41ba
000000f0: 7381 0fbb 4dc6 ce3a 8cd2 25bb 1898 14ba
00000100: 07d2 ed3c c970 a73a 0003 9ebc c7f0 803b
00000110: dd91 e5ba e20a a63b effb de3b d2fe e1bc
00000120: 0a83 9dbb 5fb3 05bd ee5f bfba 069c 4cbc
00000130: 2bff bebc 6a27 05bd 76f6 8e3b 03e3 4a3d
00000140: 864c c13b f465 04bd 75fb d0b9 18e2 10bb
00000150: 876f f73c f39c 09bc d7a7 31bb 7074 4cbd
00000160: 80aa 5dbb 338c 2aba e307 183b 1e0a f2ba
00000170: a341 29bc a735 0a3d 0e12 013d 0152 1d3c
00000180: 9997 a23b eb26 903c 3398 343d 1ce2 d53c
00000190: a2e7 31bd 9350 093d d98f 093a 8816 933c
000001a0: 9ced 103d 68b9 b1bb f4bc a93c 5f30 07bd
000001b0: 6ba1 003a 4fb8 44bd b87f cb3c f62b 753b
000001c0: 2387 24bd c994 293d 7ba5 e6bc df4e 2cbd
000001d0: e4d9 183d 4373 d13b 7535 a339 82f4 303b
000001e0: 4e9b c73c d2bf be3c 6e6b c5bc d1c3 a0ba
000001f0: db5f 423c 5ae6 3ebd 4cc2 05bd 8cc3 00bd
00000200: f4c7 c7bc c3b9 c0bb bd36 3abd 3554 2e3d
00000210: 8162 813c 26a8 2abb 9788 32bd 4ef3 9d3b
00000220: 80d5 c63c 9556 a93c 4d7d 8c3c 77e6 a53c
00000230: 3fc5 9abb d579 0a3b e0bd 9e3a 71ab c63c
00000240: 2d17 fd3c 33c7 af3c fd6c e23c fc58 77bb
00000250: 1e27 0e3d 5f4e 8fbc 2416 e0bc ae39 363d
00000260: 5be0 b03b 8019 b9ba e20c fcbc 5f21 0dbd
00000270: f950 aaba 1724 ff3c a07c 613d 5343 dabc
00000280: 872c 53bd 4235 2fbb 8bfb 253d d5e9 d8bc
00000290: e4d5 73bc 4e30 b0bc dec5 df3a 6b41 023d
000002a0: c1c3 203d 8212 a93c ef42 e73a 206a 473d
000002b0: 156b 6c3a 9a18 6ebb d866 81bb 4f1f 153c
000002c0: 8599 c53c 66d9 a6bb 683f aa3c 7a4e f23c
000002d0: 3957 bcbb 73ad 9abb 97cc 15ba fbd6 61ba
000002e0: 86ee a8b9 7d5c 83bb b702 0ebc 3b2a d83b
000002f0: 81ff f33c cc6b 4a3d df3c 993c 215a 363d
00000300: c187 dd3a a483 d83c 41ca 053d b3fd 01bd
00000310: 3e1c 3d3b 36d8 d6bb 2f0e ccb9 7043 4c3d
00000320: 7834 2dbd a447 8bbb a463 46bc 8fd0 143d
00000330: 6932 353d 1961 90bc 7b5a 943c c164 ee3c
00000340: 7315 043d 9ea9 143d 9c53 923c 0b1a ad3c
00000350: edcd ddbc 614c 333d e000 9e3b 2f53 7cbc
00000360: 7e3b 3c3d 53fa 013d 5be7 b5bc 7067 8abb
00000370: 6b03 173d e9ad 4a39 56a0 a73b 48fa 74bc
00000380: b5fc 583b 38de 173d 504a 183c 04b6 cebb
00000390: fc19 2b3d 8b94 093d 1c1f 123d 0bd8 36bc
000003a0: f0be f73c c233 043d ea3f 663d bc51 4f3b
000003b0: 2ae4 be3c 86df 1cbd f698 bd3c 06d7 853c
000003c0: d2d9 ce3c 3512 5b3b 2227 cabb d141 94bc
000003d0: 767a 213d a166 763b e513 20bd 3502 933b
000003e0: e3a2 afbc c60e 79bb 01df b0b8 ca04 cdbc
000003f0: ffd5 1c3a d274 a0bc d33d b0bc 40dc a13b
